…
/home/wudi/Program/anaconda3/envs/mmd/lib/python3.7/site-packages/mmcv/cnn/bricks/conv_module.py:151: UserWarning: Unnecessary conv bias before batch/instance norm
  'Unnecessary conv bias before batch/instance norm')
2022-05-30 15:38:17,535 - mmdet - INFO - Model:
SSD3DNet(
  (backbone): PointNet2SAMSG(
    (SA_modules): ModuleList(
      (0): PointSAModuleMSG(
        (groupers): ModuleList(
          (0): QueryAndGroup()
          (1): QueryAndGroup()
          (2): QueryAndGroup()
        )
        (mlps): ModuleList(
          (0): Sequential(
            (layer0): ConvModule(
              (conv): Conv2d(12, 16, kernel_size=(1, 1), stride=(1, 1))
              (bn): BatchNorm2d(16, eps=0.001, momentum=0.1, affine=True, track_running_stats=True)
              (activate): ReLU(inplace=True)
            )
            (layer1): ConvModule(
              (conv): Conv2d(16, 16, kernel_size=(1, 1), stride=(1, 1))
              (bn): BatchNorm2d(16, eps=0.001, momentum=0.1, affine=True, track_running_stats=True)
              (activate): ReLU(inplace=True)
            )
            (layer2): ConvModule(
              (conv): Conv2d(16, 32, kernel_size=(1, 1), stride=(1, 1))
              (bn): BatchNorm2d(32, eps=0.001, momentum=0.1, affine=True, track_running_stats=True)
              (activate): ReLU(inplace=True)
            )
          )
          (1): Sequential(
            (layer0): ConvModule(
              (conv): Conv2d(12, 16, kernel_size=(1, 1), stride=(1, 1))
              (bn): BatchNorm2d(16, eps=0.001, momentum=0.1, affine=True, track_running_stats=True)
              (activate): ReLU(inplace=True)
            )
            (layer1): ConvModule(
              (conv): Conv2d(16, 16, kernel_size=(1, 1), stride=(1, 1))
              (bn): BatchNorm2d(16, eps=0.001, momentum=0.1, affine=True, track_running_stats=True)
              (activate): ReLU(inplace=True)
            )
            (layer2): ConvModule(
              (conv): Conv2d(16, 32, kernel_size=(1, 1), stride=(1, 1))
              (bn): BatchNorm2d(32, eps=0.001, momentum=0.1, affine=True, track_running_stats=True)
              (activate): ReLU(inplace=True)
            )
          )
          (2): Sequential(
            (layer0): ConvModule(
              (conv): Conv2d(12, 32, kernel_size=(1, 1), stride=(1, 1))
              (bn): BatchNorm2d(32, eps=0.001, momentum=0.1, affine=True, track_running_stats=True)
              (activate): ReLU(inplace=True)
            )
            (layer1): ConvModule(
              (conv): Conv2d(32, 32, kernel_size=(1, 1), stride=(1, 1))
              (bn): BatchNorm2d(32, eps=0.001, momentum=0.1, affine=True, track_running_stats=True)
              (activate): ReLU(inplace=True)
            )
            (layer2): ConvModule(
              (conv): Conv2d(32, 64, kernel_size=(1, 1), stride=(1, 1))
              (bn): BatchNorm2d(64, eps=0.001, momentum=0.1, affine=True, track_running_stats=True)
              (activate): ReLU(inplace=True)
            )
          )
        )
        (points_sampler): PointsSampler(
          (samplers): ModuleList(
            (0): DFPSSampler()
          )
        )
      )
      (1): PointSAModuleMSG(
        (groupers): ModuleList(
          (0): QueryAndGroup()
          (1): QueryAndGroup()
          (2): QueryAndGroup()
        )
        (mlps): ModuleList(
          (0): Sequential(
            (layer0): ConvModule(
              (conv): Conv2d(67, 64, kernel_size=(1, 1), stride=(1, 1))
              (bn): BatchNorm2d(64, eps=0.001, momentum=0.1, affine=True, track_running_stats=True)
              (activate): ReLU(inplace=True)
            )
            (layer1): ConvModule(
              (conv): Conv2d(64, 64, kernel_size=(1, 1), stride=(1, 1))
              (bn): BatchNorm2d(64, eps=0.001, momentum=0.1, affine=True, track_running_stats=True)
              (activate): ReLU(inplace=True)
            )
            (layer2): ConvModule(
              (conv): Conv2d(64, 128, kernel_size=(1, 1), stride=(1, 1))
              (bn): BatchNorm2d(128, eps=0.001, momentum=0.1, affine=True, track_running_stats=True)
              (activate): ReLU(inplace=True)
            )
          )
          (1): Sequential(
            (layer0): ConvModule(
              (conv): Conv2d(67, 64, kernel_size=(1, 1), stride=(1, 1))
              (bn): BatchNorm2d(64, eps=0.001, momentum=0.1, affine=True, track_running_stats=True)
              (activate): ReLU(inplace=True)
            )
            (layer1): ConvModule(
              (conv): Conv2d(64, 64, kernel_size=(1, 1), stride=(1, 1))
              (bn): BatchNorm2d(64, eps=0.001, momentum=0.1, affine=True, track_running_stats=True)
              (activate): ReLU(inplace=True)
            )
            (layer2): ConvModule(
              (conv): Conv2d(64, 128, kernel_size=(1, 1), stride=(1, 1))
              (bn): BatchNorm2d(128, eps=0.001, momentum=0.1, affine=True, track_running_stats=True)
              (activate): ReLU(inplace=True)
            )
          )
          (2): Sequential(
            (layer0): ConvModule(
              (conv): Conv2d(67, 64, kernel_size=(1, 1), stride=(1, 1))
              (bn): BatchNorm2d(64, eps=0.001, momentum=0.1, affine=True, track_running_stats=True)
              (activate): ReLU(inplace=True)
            )
            (layer1): ConvModule(
              (conv): Conv2d(64, 96, kernel_size=(1, 1), stride=(1, 1))
              (bn): BatchNorm2d(96, eps=0.001, momentum=0.1, affine=True, track_running_stats=True)
              (activate): ReLU(inplace=True)
            )
            (layer2): ConvModule(
              (conv): Conv2d(96, 128, kernel_size=(1, 1), stride=(1, 1))
              (bn): BatchNorm2d(128, eps=0.001, momentum=0.1, affine=True, track_running_stats=True)
              (activate): ReLU(inplace=True)
            )
          )
        )
        (points_sampler): PointsSampler(
          (samplers): ModuleList(
            (0): FSSampler()
          )
        )
      )
      (2): PointSAModuleMSG(
        (groupers): ModuleList(
          (0): QueryAndGroup()
          (1): QueryAndGroup()
          (2): QueryAndGroup()
        )
        (mlps): ModuleList(
          (0): Sequential(
            (layer0): ConvModule(
              (conv): Conv2d(131, 128, kernel_size=(1, 1), stride=(1, 1))
              (bn): BatchNorm2d(128, eps=0.001, momentum=0.1, affine=True, track_running_stats=True)
              (activate): ReLU(inplace=True)
            )
            (layer1): ConvModule(
              (conv): Conv2d(128, 128, kernel_size=(1, 1), stride=(1, 1))
              (bn): BatchNorm2d(128, eps=0.001, momentum=0.1, affine=True, track_running_stats=True)
              (activate): ReLU(inplace=True)
            )
            (layer2): ConvModule(
              (conv): Conv2d(128, 256, kernel_size=(1, 1), stride=(1, 1))
              (bn): BatchNorm2d(256, eps=0.001, momentum=0.1, affine=True, track_running_stats=True)
              (activate): ReLU(inplace=True)
            )
          )
          (1): Sequential(
            (layer0): ConvModule(
              (conv): Conv2d(131, 128, kernel_size=(1, 1), stride=(1, 1))
              (bn): BatchNorm2d(128, eps=0.001, momentum=0.1, affine=True, track_running_stats=True)
              (activate): ReLU(inplace=True)
            )
            (layer1): ConvModule(
              (conv): Conv2d(128, 192, kernel_size=(1, 1), stride=(1, 1))
              (bn): BatchNorm2d(192, eps=0.001, momentum=0.1, affine=True, track_running_stats=True)
              (activate): ReLU(inplace=True)
            )
            (layer2): ConvModule(
              (conv): Conv2d(192, 256, kernel_size=(1, 1), stride=(1, 1))
              (bn): BatchNorm2d(256, eps=0.001, momentum=0.1, affine=True, track_running_stats=True)
              (activate): ReLU(inplace=True)
            )
          )
          (2): Sequential(
            (layer0): ConvModule(
              (conv): Conv2d(131, 128, kernel_size=(1, 1), stride=(1, 1))
              (bn): BatchNorm2d(128, eps=0.001, momentum=0.1, affine=True, track_running_stats=True)
              (activate): ReLU(inplace=True)
            )
            (layer1): ConvModule(
              (conv): Conv2d(128, 256, kernel_size=(1, 1), stride=(1, 1))
              (bn): BatchNorm2d(256, eps=0.001, momentum=0.1, affine=True, track_running_stats=True)
              (activate): ReLU(inplace=True)
            )
            (layer2): ConvModule(
              (conv): Conv2d(256, 256, kernel_size=(1, 1), stride=(1, 1))
              (bn): BatchNorm2d(256, eps=0.001, momentum=0.1, affine=True, track_running_stats=True)
              (activate): ReLU(inplace=True)
            )
          )
        )
        (points_sampler): PointsSampler(
          (samplers): ModuleList(
            (0): FFPSSampler()
            (1): DFPSSampler()
          )
        )
      )
    )
    (aggregation_mlps): ModuleList(
      (0): ConvModule(
        (conv): Conv1d(128, 64, kernel_size=(1,), stride=(1,))
        (bn): BatchNorm1d(64, eps=1e-05, momentum=0.1, affine=True, track_running_stats=True)
        (activate): ReLU(inplace=True)
      )
      (1): ConvModule(
        (conv): Conv1d(384, 128, kernel_size=(1,), stride=(1,))
        (bn): BatchNorm1d(128, eps=1e-05, momentum=0.1, affine=True, track_running_stats=True)
        (activate): ReLU(inplace=True)
      )
      (2): ConvModule(
        (conv): Conv1d(768, 256, kernel_size=(1,), stride=(1,))
        (bn): BatchNorm1d(256, eps=1e-05, momentum=0.1, affine=True, track_running_stats=True)
        (activate): ReLU(inplace=True)
      )
    )
  )
  (bbox_head): SSD3DHead(
    (objectness_loss): CrossEntropyLoss(avg_non_ignore=False)
    (center_loss): SmoothL1Loss()
    (dir_res_loss): SmoothL1Loss()
    (dir_class_loss): CrossEntropyLoss(avg_non_ignore=False)
    (size_res_loss): SmoothL1Loss()
    (vote_module): VoteModule(
      (vote_conv): Sequential(
        (0): ConvModule(
          (conv): Conv1d(256, 128, kernel_size=(1,), stride=(1,))
          (bn): BatchNorm1d(128, eps=0.001, momentum=0.1, affine=True, track_running_stats=True)
          (activate): ReLU(inplace=True)
        )
      )
      (conv_out): Conv1d(128, 3, kernel_size=(1,), stride=(1,))
    )
    (vote_aggregation): PointSAModuleMSG(
      (groupers): ModuleList(
        (0): QueryAndGroup()
        (1): QueryAndGroup()
      )
      (mlps): ModuleList(
        (0): Sequential(
          (layer0): ConvModule(
            (conv): Conv2d(259, 256, kernel_size=(1, 1), stride=(1, 1))
            (bn): BatchNorm2d(256, eps=0.001, momentum=0.1, affine=True, track_running_stats=True)
            (activate): ReLU(inplace=True)
          )
          (layer1): ConvModule(
            (conv): Conv2d(256, 256, kernel_size=(1, 1), stride=(1, 1))
            (bn): BatchNorm2d(256, eps=0.001, momentum=0.1, affine=True, track_running_stats=True)
            (activate): ReLU(inplace=True)
          )
          (layer2): ConvModule(
            (conv): Conv2d(256, 512, kernel_size=(1, 1), stride=(1, 1))
            (bn): BatchNorm2d(512, eps=0.001, momentum=0.1, affine=True, track_running_stats=True)
            (activate): ReLU(inplace=True)
          )
        )
        (1): Sequential(
          (layer0): ConvModule(
            (conv): Conv2d(259, 256, kernel_size=(1, 1), stride=(1, 1))
            (bn): BatchNorm2d(256, eps=0.001, momentum=0.1, affine=True, track_running_stats=True)
            (activate): ReLU(inplace=True)
          )
          (layer1): ConvModule(
            (conv): Conv2d(256, 512, kernel_size=(1, 1), stride=(1, 1))
            (bn): BatchNorm2d(512, eps=0.001, momentum=0.1, affine=True, track_running_stats=True)
            (activate): ReLU(inplace=True)
          )
          (layer2): ConvModule(
            (conv): Conv2d(512, 1024, kernel_size=(1, 1), stride=(1, 1))
            (bn): BatchNorm2d(1024, eps=0.001, momentum=0.1, affine=True, track_running_stats=True)
            (activate): ReLU(inplace=True)
          )
        )
      )
      (points_sampler): PointsSampler(
        (samplers): ModuleList(
          (0): DFPSSampler()
        )
      )
    )
    (conv_pred): BaseConvBboxHead(
      (shared_convs): Sequential(
        (layer0): ConvModule(
          (conv): Conv1d(1536, 512, kernel_size=(1,), stride=(1,))
          (bn): BatchNorm1d(512, eps=0.001, momentum=0.1, affine=True, track_running_stats=True)
          (activate): ReLU(inplace=True)
        )
        (layer1): ConvModule(
          (conv): Conv1d(512, 128, kernel_size=(1,), stride=(1,))
          (bn): BatchNorm1d(128, eps=0.001, momentum=0.1, affine=True, track_running_stats=True)
          (activate): ReLU(inplace=True)
        )
      )
      (cls_convs): Sequential(
        (layer0): ConvModule(
          (conv): Conv1d(128, 128, kernel_size=(1,), stride=(1,))
          (bn): BatchNorm1d(128, eps=0.001, momentum=0.1, affine=True, track_running_stats=True)
          (activate): ReLU(inplace=True)
        )
      )
      (conv_cls): Conv1d(128, 1, kernel_size=(1,), stride=(1,))
      (reg_convs): Sequential(
        (layer0): ConvModule(
          (conv): Conv1d(128, 128, kernel_size=(1,), stride=(1,))
          (bn): BatchNorm1d(128, eps=0.001, momentum=0.1, affine=True, track_running_stats=True)
          (activate): ReLU(inplace=True)
        )
      )
      (conv_reg): Conv1d(128, 30, kernel_size=(1,), stride=(1,))
    )
    (corner_loss): SmoothL1Loss()
    (vote_loss): SmoothL1Loss()
  )
  (stairnet): StairNet(
    (basicblock_1_1): BasicBlock(
      (conv_init): Conv2d(5, 64, kernel_size=(3, 3), stride=(2, 2), padding=(1, 1), padding_mode=replicate)
      (conv_init_norm): BatchNorm2d(64, eps=1e-05, momentum=0.1, affine=True, track_running_stats=True)
      (conv_init_relu): ReLU(inplace=True)
    )
    (basicblock_1_2): BasicBlock(
      (conv_init): Conv2d(5, 64, kernel_size=(5, 5), stride=(2, 2), padding=(2, 2), padding_mode=replicate)
      (conv_init_norm): BatchNorm2d(64, eps=1e-05, momentum=0.1, affine=True, track_running_stats=True)
      (conv_init_relu): ReLU(inplace=True)
    )
    (DRB_1_2_1): DRB(
      (conv_d11): Conv2d(64, 64, kernel_size=(3, 3), stride=(1, 1), padding=(1, 1), padding_mode=replicate)
      (conv_d11_norm): BatchNorm2d(64, eps=1e-05, momentum=0.1, affine=True, track_running_stats=True)
      (conv_d11_relu): ReLU(inplace=True)
      (conv_d12): Conv2d(64, 64, kernel_size=(3, 3), stride=(1, 1), padding=(1, 2), dilation=(1, 2), padding_mode=replicate)
      (conv_d12_norm): BatchNorm2d(64, eps=1e-05, momentum=0.1, affine=True, track_running_stats=True)
      (conv_d12_relu): ReLU(inplace=True)
      (conv_d14): Conv2d(64, 64, kernel_size=(3, 3), stride=(1, 1), padding=(1, 4), dilation=(1, 4), padding_mode=replicate)
      (conv_d14_norm): BatchNorm2d(64, eps=1e-05, momentum=0.1, affine=True, track_running_stats=True)
      (conv_d14_relu): ReLU(inplace=True)
      (conv_ca): Conv2d(192, 64, kernel_size=(1, 1), stride=(1, 1))
      (conv_ca_norm): BatchNorm2d(64, eps=1e-05, momentum=0.1, affine=True, track_running_stats=True)
      (conv_ca_relu): ReLU(inplace=True)
    )
    (Downsampling_1_2_1): DownSampling(
      (pool): MaxPool2d(kernel_size=(2, 2), stride=(2, 2), padding=0, dilation=1, ceil_mode=False)
      (conv): Conv2d(64, 64, kernel_size=(3, 3), stride=(1, 1), padding=(1, 1), padding_mode=replicate)
      (conv_norm): BatchNorm2d(64, eps=1e-05, momentum=0.1, affine=True, track_running_stats=True)
      (conv_relu): ReLU()
    )
    (DRB_1_2_2): DRB(
      (conv_d11): Conv2d(128, 128, kernel_size=(3, 3), stride=(1, 1), padding=(1, 1), padding_mode=replicate)
      (conv_d11_norm): BatchNorm2d(128, eps=1e-05, momentum=0.1, affine=True, track_running_stats=True)
      (conv_d11_relu): ReLU(inplace=True)
      (conv_d12): Conv2d(128, 128, kernel_size=(3, 3), stride=(1, 1), padding=(1, 2), dilation=(1, 2), padding_mode=replicate)
      (conv_d12_norm): BatchNorm2d(128, eps=1e-05, momentum=0.1, affine=True, track_running_stats=True)
      (conv_d12_relu): ReLU(inplace=True)
      (conv_d14): Conv2d(128, 128, kernel_size=(3, 3), stride=(1, 1), padding=(1, 4), dilation=(1, 4), padding_mode=replicate)
      (conv_d14_norm): BatchNorm2d(128, eps=1e-05, momentum=0.1, affine=True, track_running_stats=True)
      (conv_d14_relu): ReLU(inplace=True)
      (conv_ca): Conv2d(384, 128, kernel_size=(1, 1), stride=(1, 1))
      (conv_ca_norm): BatchNorm2d(128, eps=1e-05, momentum=0.1, affine=True, track_running_stats=True)
      (conv_ca_relu): ReLU(inplace=True)
    )
    (basicblock_1_3): BasicBlock(
      (conv_init): Conv2d(5, 64, kernel_size=(7, 7), stride=(2, 2), padding=(3, 3), padding_mode=replicate)
      (conv_init_norm): BatchNorm2d(64, eps=1e-05, momentum=0.1, affine=True, track_running_stats=True)
      (conv_init_relu): ReLU(inplace=True)
    )
    (DRB_1_3_1): DRB(
      (conv_d11): Conv2d(64, 64, kernel_size=(3, 3), stride=(1, 1), padding=(1, 1), padding_mode=replicate)
      (conv_d11_norm): BatchNorm2d(64, eps=1e-05, momentum=0.1, affine=True, track_running_stats=True)
      (conv_d11_relu): ReLU(inplace=True)
      (conv_d12): Conv2d(64, 64, kernel_size=(3, 3), stride=(1, 1), padding=(1, 2), dilation=(1, 2), padding_mode=replicate)
      (conv_d12_norm): BatchNorm2d(64, eps=1e-05, momentum=0.1, affine=True, track_running_stats=True)
      (conv_d12_relu): ReLU(inplace=True)
      (conv_d14): Conv2d(64, 64, kernel_size=(3, 3), stride=(1, 1), padding=(1, 4), dilation=(1, 4), padding_mode=replicate)
      (conv_d14_norm): BatchNorm2d(64, eps=1e-05, momentum=0.1, affine=True, track_running_stats=True)
      (conv_d14_relu): ReLU(inplace=True)
      (conv_ca): Conv2d(192, 64, kernel_size=(1, 1), stride=(1, 1))
      (conv_ca_norm): BatchNorm2d(64, eps=1e-05, momentum=0.1, affine=True, track_running_stats=True)
      (conv_ca_relu): ReLU(inplace=True)
    )
    (Downsampling_1_3_1): DownSampling(
      (pool): MaxPool2d(kernel_size=(2, 2), stride=(2, 2), padding=0, dilation=1, ceil_mode=False)
      (conv): Conv2d(64, 64, kernel_size=(3, 3), stride=(1, 1), padding=(1, 1), padding_mode=replicate)
      (conv_norm): BatchNorm2d(64, eps=1e-05, momentum=0.1, affine=True, track_running_stats=True)
      (conv_relu): ReLU()
    )
    (DRB_1_3_2): DRB(
      (conv_d11): Conv2d(128, 128, kernel_size=(3, 3), stride=(1, 1), padding=(1, 1), padding_mode=replicate)
      (conv_d11_norm): BatchNorm2d(128, eps=1e-05, momentum=0.1, affine=True, track_running_stats=True)
      (conv_d11_relu): ReLU(inplace=True)
      (conv_d12): Conv2d(128, 128, kernel_size=(3, 3), stride=(1, 1), padding=(1, 2), dilation=(1, 2), padding_mode=replicate)
      (conv_d12_norm): BatchNorm2d(128, eps=1e-05, momentum=0.1, affine=True, track_running_stats=True)
      (conv_d12_relu): ReLU(inplace=True)
      (conv_d14): Conv2d(128, 128, kernel_size=(3, 3), stride=(1, 1), padding=(1, 4), dilation=(1, 4), padding_mode=replicate)
      (conv_d14_norm): BatchNorm2d(128, eps=1e-05, momentum=0.1, affine=True, track_running_stats=True)
      (conv_d14_relu): ReLU(inplace=True)
      (conv_ca): Conv2d(384, 128, kernel_size=(1, 1), stride=(1, 1))
      (conv_ca_norm): BatchNorm2d(128, eps=1e-05, momentum=0.1, affine=True, track_running_stats=True)
      (conv_ca_relu): ReLU(inplace=True)
    )
    (Downsampling_1_3_2): DownSampling(
      (pool): MaxPool2d(kernel_size=(2, 2), stride=(2, 2), padding=0, dilation=1, ceil_mode=False)
      (conv): Conv2d(128, 128, kernel_size=(3, 3), stride=(1, 1), padding=(1, 1), padding_mode=replicate)
      (conv_norm): BatchNorm2d(128, eps=1e-05, momentum=0.1, affine=True, track_running_stats=True)
      (conv_relu): ReLU()
    )
    (DRB_1_3_3): DRB(
      (conv_d11): Conv2d(256, 128, kernel_size=(3, 3), stride=(1, 1), padding=(1, 1), padding_mode=replicate)
      (conv_d11_norm): BatchNorm2d(128, eps=1e-05, momentum=0.1, affine=True, track_running_stats=True)
      (conv_d11_relu): ReLU(inplace=True)
      (conv_d12): Conv2d(128, 128, kernel_size=(3, 3), stride=(1, 1), padding=(1, 2), dilation=(1, 2), padding_mode=replicate)
      (conv_d12_norm): BatchNorm2d(128, eps=1e-05, momentum=0.1, affine=True, track_running_stats=True)
      (conv_d12_relu): ReLU(inplace=True)
      (conv_d14): Conv2d(128, 128, kernel_size=(3, 3), stride=(1, 1), padding=(1, 4), dilation=(1, 4), padding_mode=replicate)
      (conv_d14_norm): BatchNorm2d(128, eps=1e-05, momentum=0.1, affine=True, track_running_stats=True)
      (conv_d14_relu): ReLU(inplace=True)
      (conv_ca): Conv2d(384, 256, kernel_size=(1, 1), stride=(1, 1))
      (conv_ca_norm): BatchNorm2d(256, eps=1e-05, momentum=0.1, affine=True, track_running_stats=True)
      (conv_ca_relu): ReLU(inplace=True)
    )
  )
  (img_encoder): Img_Encoder(
    (conv_init): Conv2d(3, 64, kernel_size=(7, 7), stride=(2, 2), padding=(3, 3), padding_mode=replicate)
    (conv_init_norm): BatchNorm2d(64, eps=1e-05, momentum=0.1, affine=True, track_running_stats=True)
    (conv_init_relu): ReLU(inplace=True)
    (DRB10): DRB(
      (conv_d11): Conv2d(64, 64, kernel_size=(3, 3), stride=(1, 1), padding=(1, 1), padding_mode=replicate)
      (conv_d11_norm): BatchNorm2d(64, eps=1e-05, momentum=0.1, affine=True, track_running_stats=True)
      (conv_d11_relu): ReLU(inplace=True)
      (conv_d12): Conv2d(64, 64, kernel_size=(3, 3), stride=(1, 1), padding=(1, 2), dilation=(1, 2), padding_mode=replicate)
      (conv_d12_norm): BatchNorm2d(64, eps=1e-05, momentum=0.1, affine=True, track_running_stats=True)
      (conv_d12_relu): ReLU(inplace=True)
      (conv_d14): Conv2d(64, 64, kernel_size=(3, 3), stride=(1, 1), padding=(1, 4), dilation=(1, 4), padding_mode=replicate)
      (conv_d14_norm): BatchNorm2d(64, eps=1e-05, momentum=0.1, affine=True, track_running_stats=True)
      (conv_d14_relu): ReLU(inplace=True)
      (conv_ca): Conv2d(192, 64, kernel_size=(1, 1), stride=(1, 1))
      (conv_ca_norm): BatchNorm2d(64, eps=1e-05, momentum=0.1, affine=True, track_running_stats=True)
      (conv_ca_relu): ReLU(inplace=True)
    )
    (DRB11): DRB(
      (conv_d11): Conv2d(64, 64, kernel_size=(3, 3), stride=(1, 1), padding=(1, 1), padding_mode=replicate)
      (conv_d11_norm): BatchNorm2d(64, eps=1e-05, momentum=0.1, affine=True, track_running_stats=True)
      (conv_d11_relu): ReLU(inplace=True)
      (conv_d12): Conv2d(64, 64, kernel_size=(3, 3), stride=(1, 1), padding=(1, 2), dilation=(1, 2), padding_mode=replicate)
      (conv_d12_norm): BatchNorm2d(64, eps=1e-05, momentum=0.1, affine=True, track_running_stats=True)
      (conv_d12_relu): ReLU(inplace=True)
      (conv_d14): Conv2d(64, 64, kernel_size=(3, 3), stride=(1, 1), padding=(1, 4), dilation=(1, 4), padding_mode=replicate)
      (conv_d14_norm): BatchNorm2d(64, eps=1e-05, momentum=0.1, affine=True, track_running_stats=True)
      (conv_d14_relu): ReLU(inplace=True)
      (conv_ca): Conv2d(192, 64, kernel_size=(1, 1), stride=(1, 1))
      (conv_ca_norm): BatchNorm2d(64, eps=1e-05, momentum=0.1, affine=True, track_running_stats=True)
      (conv_ca_relu): ReLU(inplace=True)
    )
    (DRB1_conv): Conv2d(64, 128, kernel_size=(5, 5), stride=(2, 2), padding=(2, 2), padding_mode=replicate)
    (DRB1_conv_norm): BatchNorm2d(128, eps=1e-05, momentum=0.1, affine=True, track_running_stats=True)
    (DRB1_conv_relu): ReLU(inplace=True)
    (DRB20): DRB(
      (conv_d11): Conv2d(128, 128, kernel_size=(3, 3), stride=(1, 1), padding=(1, 1), padding_mode=replicate)
      (conv_d11_norm): BatchNorm2d(128, eps=1e-05, momentum=0.1, affine=True, track_running_stats=True)
      (conv_d11_relu): ReLU(inplace=True)
      (conv_d12): Conv2d(128, 128, kernel_size=(3, 3), stride=(1, 1), padding=(1, 2), dilation=(1, 2), padding_mode=replicate)
      (conv_d12_norm): BatchNorm2d(128, eps=1e-05, momentum=0.1, affine=True, track_running_stats=True)
      (conv_d12_relu): ReLU(inplace=True)
      (conv_d14): Conv2d(128, 128, kernel_size=(3, 3), stride=(1, 1), padding=(1, 4), dilation=(1, 4), padding_mode=replicate)
      (conv_d14_norm): BatchNorm2d(128, eps=1e-05, momentum=0.1, affine=True, track_running_stats=True)
      (conv_d14_relu): ReLU(inplace=True)
      (conv_ca): Conv2d(384, 128, kernel_size=(1, 1), stride=(1, 1))
      (conv_ca_norm): BatchNorm2d(128, eps=1e-05, momentum=0.1, affine=True, track_running_stats=True)
      (conv_ca_relu): ReLU(inplace=True)
    )
    (DRB21): DRB(
      (conv_d11): Conv2d(128, 128, kernel_size=(3, 3), stride=(1, 1), padding=(1, 1), padding_mode=replicate)
      (conv_d11_norm): BatchNorm2d(128, eps=1e-05, momentum=0.1, affine=True, track_running_stats=True)
      (conv_d11_relu): ReLU(inplace=True)
      (conv_d12): Conv2d(128, 128, kernel_size=(3, 3), stride=(1, 1), padding=(1, 2), dilation=(1, 2), padding_mode=replicate)
      (conv_d12_norm): BatchNorm2d(128, eps=1e-05, momentum=0.1, affine=True, track_running_stats=True)
      (conv_d12_relu): ReLU(inplace=True)
      (conv_d14): Conv2d(128, 128, kernel_size=(3, 3), stride=(1, 1), padding=(1, 4), dilation=(1, 4), padding_mode=replicate)
      (conv_d14_norm): BatchNorm2d(128, eps=1e-05, momentum=0.1, affine=True, track_running_stats=True)
      (conv_d14_relu): ReLU(inplace=True)
      (conv_ca): Conv2d(384, 128, kernel_size=(1, 1), stride=(1, 1))
      (conv_ca_norm): BatchNorm2d(128, eps=1e-05, momentum=0.1, affine=True, track_running_stats=True)
      (conv_ca_relu): ReLU(inplace=True)
    )
    (DRB2_conv): Conv2d(128, 256, kernel_size=(3, 3), stride=(2, 2), padding=(1, 1), padding_mode=replicate)
    (DRB2_conv_norm): BatchNorm2d(256, eps=1e-05, momentum=0.1, affine=True, track_running_stats=True)
    (DRB2_conv_relu): ReLU(inplace=True)
    (DRB3): DRB(
      (conv_d11): Conv2d(256, 128, kernel_size=(3, 3), stride=(1, 1), padding=(1, 1), padding_mode=replicate)
      (conv_d11_norm): BatchNorm2d(128, eps=1e-05, momentum=0.1, affine=True, track_running_stats=True)
      (conv_d11_relu): ReLU(inplace=True)
      (conv_d12): Conv2d(128, 128, kernel_size=(3, 3), stride=(1, 1), padding=(1, 2), dilation=(1, 2), padding_mode=replicate)
      (conv_d12_norm): BatchNorm2d(128, eps=1e-05, momentum=0.1, affine=True, track_running_stats=True)
      (conv_d12_relu): ReLU(inplace=True)
      (conv_d14): Conv2d(128, 128, kernel_size=(3, 3), stride=(1, 1), padding=(1, 4), dilation=(1, 4), padding_mode=replicate)
      (conv_d14_norm): BatchNorm2d(128, eps=1e-05, momentum=0.1, affine=True, track_running_stats=True)
      (conv_d14_relu): ReLU(inplace=True)
      (conv_ca): Conv2d(384, 256, kernel_size=(1, 1), stride=(1, 1))
      (conv_ca_norm): BatchNorm2d(256, eps=1e-05, momentum=0.1, affine=True, track_running_stats=True)
      (conv_ca_relu): ReLU(inplace=True)
    )
  )
  (decoder): Decoder(
    (fusion_1): Fusion(
      (SAM): SAM(
        (q_conv): Conv2d(256, 64, kernel_size=(1, 1), stride=(1, 1))
        (k_conv): Conv2d(256, 64, kernel_size=(1, 1), stride=(1, 1))
        (v_conv): Conv2d(256, 64, kernel_size=(1, 1), stride=(1, 1))
        (softmax): Softmax(dim=-1)
        (map): Sequential(
          (0): Conv2d(64, 256, kernel_size=(1, 1), stride=(1, 1))
          (1): BatchNorm2d(256, eps=1e-05, momentum=0.1, affine=True, track_running_stats=True)
        )
        (map_relu): ReLU(inplace=True)
      )
      (CAM): CAM(
        (q_conv): Conv2d(256, 256, kernel_size=(3, 3), stride=(2, 2), padding=(1, 1), padding_mode=replicate)
        (k_conv): Conv2d(256, 256, kernel_size=(3, 3), stride=(2, 2), padding=(1, 1), padding_mode=replicate)
        (v_conv): Conv2d(256, 256, kernel_size=(1, 1), stride=(1, 1))
        (softmax): Softmax(dim=-1)
        (map): Sequential(
          (0): Conv2d(256, 256, kernel_size=(1, 1), stride=(1, 1))
          (1): BatchNorm2d(256, eps=1e-05, momentum=0.1, affine=True, track_running_stats=True)
        )
        (map_relu): ReLU(inplace=True)
      )
      (conv): Conv2d(768, 256, kernel_size=(1, 1), stride=(1, 1), padding_mode=replicate)
    )
    (i_upsample_1): UpSampling(
      (upsample): Upsample(scale_factor=(2.0, 2.0), mode=bilinear)
      (conv): Conv2d(256, 128, kernel_size=(3, 3), stride=(1, 1), padding=(1, 1), padding_mode=replicate)
      (conv_norm): BatchNorm2d(128, eps=1e-05, momentum=0.1, affine=True, track_running_stats=True)
    )
    (i_upsample_1_relu): ReLU(inplace=True)
    (i_DRB_1): DRB(
      (conv_d11): Conv2d(128, 128, kernel_size=(3, 3), stride=(1, 1), padding=(1, 1), padding_mode=replicate)
      (conv_d11_norm): BatchNorm2d(128, eps=1e-05, momentum=0.1, affine=True, track_running_stats=True)
      (conv_d11_relu): ReLU(inplace=True)
      (conv_d12): Conv2d(128, 128, kernel_size=(3, 3), stride=(1, 1), padding=(1, 2), dilation=(1, 2), padding_mode=replicate)
      (conv_d12_norm): BatchNorm2d(128, eps=1e-05, momentum=0.1, affine=True, track_running_stats=True)
      (conv_d12_relu): ReLU(inplace=True)
      (conv_d14): Conv2d(128, 128, kernel_size=(3, 3), stride=(1, 1), padding=(1, 4), dilation=(1, 4), padding_mode=replicate)
      (conv_d14_norm): BatchNorm2d(128, eps=1e-05, momentum=0.1, affine=True, track_running_stats=True)
      (conv_d14_relu): ReLU(inplace=True)
      (conv_ca): Conv2d(384, 128, kernel_size=(1, 1), stride=(1, 1))
      (conv_ca_norm): BatchNorm2d(128, eps=1e-05, momentum=0.1, affine=True, track_running_stats=True)
      (conv_ca_relu): ReLU(inplace=True)
    )
    (upsample_1): UpSampling(
      (upsample): Upsample(scale_factor=(2.0, 2.0), mode=bilinear)
      (conv): Conv2d(256, 128, kernel_size=(3, 3), stride=(1, 1), padding=(1, 1), padding_mode=replicate)
      (conv_norm): BatchNorm2d(128, eps=1e-05, momentum=0.1, affine=True, track_running_stats=True)
    )
    (upsample_1_relu): ReLU(inplace=True)
    (DRB_1): DRB(
      (conv_d11): Conv2d(128, 128, kernel_size=(3, 3), stride=(1, 1), padding=(1, 1), padding_mode=replicate)
      (conv_d11_norm): BatchNorm2d(128, eps=1e-05, momentum=0.1, affine=True, track_running_stats=True)
      (conv_d11_relu): ReLU(inplace=True)
      (conv_d12): Conv2d(128, 128, kernel_size=(3, 3), stride=(1, 1), padding=(1, 2), dilation=(1, 2), padding_mode=replicate)
      (conv_d12_norm): BatchNorm2d(128, eps=1e-05, momentum=0.1, affine=True, track_running_stats=True)
      (conv_d12_relu): ReLU(inplace=True)
      (conv_d14): Conv2d(128, 128, kernel_size=(3, 3), stride=(1, 1), padding=(1, 4), dilation=(1, 4), padding_mode=replicate)
      (conv_d14_norm): BatchNorm2d(128, eps=1e-05, momentum=0.1, affine=True, track_running_stats=True)
      (conv_d14_relu): ReLU(inplace=True)
      (conv_ca): Conv2d(384, 128, kernel_size=(1, 1), stride=(1, 1))
      (conv_ca_norm): BatchNorm2d(128, eps=1e-05, momentum=0.1, affine=True, track_running_stats=True)
      (conv_ca_relu): ReLU(inplace=True)
    )
    (fusion_2): Fusion(
      (SAM): SAM(
        (q_conv): Conv2d(128, 32, kernel_size=(1, 1), stride=(1, 1))
        (k_conv): Conv2d(128, 32, kernel_size=(1, 1), stride=(1, 1))
        (v_conv): Conv2d(128, 32, kernel_size=(1, 1), stride=(1, 1))
        (softmax): Softmax(dim=-1)
        (map): Sequential(
          (0): Conv2d(32, 128, kernel_size=(1, 1), stride=(1, 1))
          (1): BatchNorm2d(128, eps=1e-05, momentum=0.1, affine=True, track_running_stats=True)
        )
        (map_relu): ReLU(inplace=True)
      )
      (CAM): CAM(
        (q_conv): Conv2d(128, 128, kernel_size=(3, 3), stride=(2, 2), padding=(1, 1), padding_mode=replicate)
        (k_conv): Conv2d(128, 128, kernel_size=(3, 3), stride=(2, 2), padding=(1, 1), padding_mode=replicate)
        (v_conv): Conv2d(128, 128, kernel_size=(1, 1), stride=(1, 1))
        (softmax): Softmax(dim=-1)
        (map): Sequential(
          (0): Conv2d(128, 128, kernel_size=(1, 1), stride=(1, 1))
          (1): BatchNorm2d(128, eps=1e-05, momentum=0.1, affine=True, track_running_stats=True)
        )
        (map_relu): ReLU(inplace=True)
      )
      (conv): Conv2d(384, 128, kernel_size=(1, 1), stride=(1, 1), padding_mode=replicate)
    )
    (i_upsample_2): UpSampling(
      (upsample): Upsample(scale_factor=(2.0, 2.0), mode=bilinear)
      (conv): Conv2d(128, 64, kernel_size=(3, 3), stride=(1, 1), padding=(1, 1), padding_mode=replicate)
      (conv_norm): BatchNorm2d(64, eps=1e-05, momentum=0.1, affine=True, track_running_stats=True)
    )
    (i_upsample_2_relu): ReLU(inplace=True)
    (i_DRB_2): DRB(
      (conv_d11): Conv2d(64, 64, kernel_size=(3, 3), stride=(1, 1), padding=(1, 1), padding_mode=replicate)
      (conv_d11_norm): BatchNorm2d(64, eps=1e-05, momentum=0.1, affine=True, track_running_stats=True)
      (conv_d11_relu): ReLU(inplace=True)
      (conv_d12): Conv2d(64, 64, kernel_size=(3, 3), stride=(1, 1), padding=(1, 2), dilation=(1, 2), padding_mode=replicate)
      (conv_d12_norm): BatchNorm2d(64, eps=1e-05, momentum=0.1, affine=True, track_running_stats=True)
      (conv_d12_relu): ReLU(inplace=True)
      (conv_d14): Conv2d(64, 64, kernel_size=(3, 3), stride=(1, 1), padding=(1, 4), dilation=(1, 4), padding_mode=replicate)
      (conv_d14_norm): BatchNorm2d(64, eps=1e-05, momentum=0.1, affine=True, track_running_stats=True)
      (conv_d14_relu): ReLU(inplace=True)
      (conv_ca): Conv2d(192, 64, kernel_size=(1, 1), stride=(1, 1))
      (conv_ca_norm): BatchNorm2d(64, eps=1e-05, momentum=0.1, affine=True, track_running_stats=True)
      (conv_ca_relu): ReLU(inplace=True)
    )
    (upsample_2): UpSampling(
      (upsample): Upsample(scale_factor=(2.0, 2.0), mode=bilinear)
      (conv): Conv2d(128, 64, kernel_size=(3, 3), stride=(1, 1), padding=(1, 1), padding_mode=replicate)
      (conv_norm): BatchNorm2d(64, eps=1e-05, momentum=0.1, affine=True, track_running_stats=True)
    )
    (upsample_2_relu): ReLU(inplace=True)
    (DRB_2): DRB(
      (conv_d11): Conv2d(64, 64, kernel_size=(3, 3), stride=(1, 1), padding=(1, 1), padding_mode=replicate)
      (conv_d11_norm): BatchNorm2d(64, eps=1e-05, momentum=0.1, affine=True, track_running_stats=True)
      (conv_d11_relu): ReLU(inplace=True)
      (conv_d12): Conv2d(64, 64, kernel_size=(3, 3), stride=(1, 1), padding=(1, 2), dilation=(1, 2), padding_mode=replicate)
      (conv_d12_norm): BatchNorm2d(64, eps=1e-05, momentum=0.1, affine=True, track_running_stats=True)
      (conv_d12_relu): ReLU(inplace=True)
      (conv_d14): Conv2d(64, 64, kernel_size=(3, 3), stride=(1, 1), padding=(1, 4), dilation=(1, 4), padding_mode=replicate)
      (conv_d14_norm): BatchNorm2d(64, eps=1e-05, momentum=0.1, affine=True, track_running_stats=True)
      (conv_d14_relu): ReLU(inplace=True)
      (conv_ca): Conv2d(192, 64, kernel_size=(1, 1), stride=(1, 1))
      (conv_ca_norm): BatchNorm2d(64, eps=1e-05, momentum=0.1, affine=True, track_running_stats=True)
      (conv_ca_relu): ReLU(inplace=True)
    )
    (fusion_3): Fusion(
      (SAM): SAM(
        (q_conv): Conv2d(64, 16, kernel_size=(1, 1), stride=(1, 1))
        (k_conv): Conv2d(64, 16, kernel_size=(1, 1), stride=(1, 1))
        (v_conv): Conv2d(64, 16, kernel_size=(1, 1), stride=(1, 1))
        (softmax): Softmax(dim=-1)
        (map): Sequential(
          (0): Conv2d(16, 64, kernel_size=(1, 1), stride=(1, 1))
          (1): BatchNorm2d(64, eps=1e-05, momentum=0.1, affine=True, track_running_stats=True)
        )
        (map_relu): ReLU(inplace=True)
      )
      (CAM): CAM(
        (q_conv): Conv2d(64, 64, kernel_size=(3, 3), stride=(2, 2), padding=(1, 1), padding_mode=replicate)
        (k_conv): Conv2d(64, 64, kernel_size=(3, 3), stride=(2, 2), padding=(1, 1), padding_mode=replicate)
        (v_conv): Conv2d(64, 64, kernel_size=(1, 1), stride=(1, 1))
        (softmax): Softmax(dim=-1)
        (map): Sequential(
          (0): Conv2d(64, 64, kernel_size=(1, 1), stride=(1, 1))
          (1): BatchNorm2d(64, eps=1e-05, momentum=0.1, affine=True, track_running_stats=True)
        )
        (map_relu): ReLU(inplace=True)
      )
      (conv): Conv2d(192, 64, kernel_size=(1, 1), stride=(1, 1), padding_mode=replicate)
    )
    (upsample_3): UpSampling(
      (upsample): Upsample(scale_factor=(2.0, 2.0), mode=bilinear)
      (conv): Conv2d(64, 64, kernel_size=(3, 3), stride=(1, 1), padding=(1, 1), padding_mode=replicate)
      (conv_norm): BatchNorm2d(64, eps=1e-05, momentum=0.1, affine=True, track_running_stats=True)
    )
    (upsample_3_relu): ReLU(inplace=True)
    (conv_out): Conv2d(64, 8, kernel_size=(7, 7), stride=(1, 1), padding=(3, 3), padding_mode=replicate)
  )
)
/home/wudi/Program/anaconda3/envs/mmd/lib/python3.7/site-packages/mmcv/cnn/bricks/conv_module.py:151: UserWarning: Unnecessary conv bias before batch/instance norm
  'Unnecessary conv bias before batch/instance norm')
/home/wudi/Program/anaconda3/envs/mmd/lib/python3.7/site-packages/mmcv/cnn/bricks/conv_module.py:151: UserWarning: Unnecessary conv bias before batch/instance norm
…
